bressan.pt (torch, 677575 bytes, 9 tensors)

shared.0.weight f4 [32, 1, 3, 3]
000000 ab 4f 17 bd 96 cb 54 3d 76 46 ef 3d 0b 96 86 bd
       -0.03694121 0.051951967 0.11683361 -0.06571587
000010 e0 09 36 bd ab 97 a2 3c 86 9c be 3d 2e 6e 5a 3e
       -0.04444301 0.019847712 0.09307198 0.21331093
000020 36 17 26 3e e0 6b 43 3e e0 97 06 3e e3 56 81 3e
       0.16219792 0.1908412 0.13143873 0.25261602
000030 2c e1 a3 be 9e 13 47 3e 36 69 ee 3d 5a 36 a2 3e
       -0.3200773 0.19441077 0.11641161 0.31682092
000040 dc f0 9e 3e e8 ad 9c be ab 36 a4 be 9f 8a 87 3e
       0.31043136 -0.3060143 -0.32072958 0.26472947
000050 4b 99 81 3e f6 aa fe bd cb 0a 43 3d 10 43 a0 3d
       0.25312266 -0.12434952 0.047617715 0.07825291
000060 ae 82 91 3e 8b 00 42 3d ef 48 8e be 1c 63 89 be
       0.28420013 0.0473638 -0.2779002 -0.26833427
000070 4f 62 82 3e 00 69 f4 bc bb 9c ac bd 76 e3 4a bd
       0.25465629 -0.029835224 -0.084283315 -0.04953333
000080 66 26 19 3e b3 10 75 3e e0 df 9c bd 00 59 c7 3c
       0.14956054 0.23932151 -0.07659888 0.02433443
000090 fa 5d 91 be f3 a1 6e 3e a0 5c 28 be 88 d0 6a be
       -0.2839201 0.23303966 -0.16441584 -0.22931111
0000a0 00 b6 6b 3c 1b ab ce 3d e6 fe d1 3d 50 8e 90 3e
       0.014386654 0.100912295 0.10253696 0.28233576
0000b0 2b bd d7 bc 6c 19 9f be 6c 3e 85 be b2 80 96 3e
       -0.02633532 -0.31074083 -0.26024187 0.29395062
0000c0 83 bd 74 3e c0 a6 eb bc 43 73 08 be b6 20 35 3e
       0.23900418 -0.028766036 -0.13325219 0.1768826
0000d0 06 d1 ca bd f6 e2 90 3d d6 2f 05 3d 16 17 c3 bd
       -0.09903149 0.07074539 0.032516323 -0.09525888
0000e0 96 62 db bc 26 a0 aa bd 00 d5 a3 3c b0 af e2 3d
       -0.026780408 -0.08331327 0.019999027 0.11068666
0000f0 e0 d6 ef bd 50 0b e4 bd 68 23 63 3e 5b 47 7f 3e
       -0.11710906 -0.1113497 0.22181475 0.24929564
000100 56 22 11 3d 83 48 94 3e 1f 6e 8a 3e bb 6c b6 3d
       0.035433136 0.28961572 0.2703714 0.089074574
000110 2b 77 85 be f8 ed 63 be 16 45 e5 bc 2e 8b 7c 3e
       -0.2606748 -0.22258747 -0.027987044 0.24662468
000120 cf 23 8b be 83 3e 86 3e 63 b0 32 be 07 78 a8 3e
       -0.27175757 0.26219568 -0.17450099 0.32904074
000130 7e 6a a0 3e ee 8a 6e be 0b b1 5c 3d 33 4a 97 3e
       0.31331247 -0.23295185 0.05387978 0.29548797
000140 2b d5 7f 3c 16 b8 1c be 2c e8 92 be 00 2a a9 bd
       0.015614788 -0.15304598 -0.28692758 -0.08259964
000150 74 6e 90 3e 70 cf bb 3d a0 ed 22 be 96 f3 62 bd
       0.2820927 0.09170425 -0.15910959 -0.055408083
000160 70 81 48 3e 72 68 a1 3e 40 16 8d 3e 2b fd 17 3e
       0.19580626 0.31524998 0.27556038 0.1484267
000170 1a 10 8d 3e 96 28 88 3c 23 aa 59 3e 58 38 54 3e
       0.27551347 0.016620915 0.21256308 0.20724618
000180 58 9a 49 3e 7b 70 de bd 76 9f 5b 3e 16 8d d3 bc
       0.19687784 -0.10861298 0.21447548 -0.025824111
000190 c8 69 9b be cb 79 94 3e 40 78 87 3e ef bd 9c 3e
       -0.30354142 0.2899917 0.2645893 0.30613658
0001a0 6b 42 98 3d 13 5a 29 3e 40 ab d9 3d 08 90 48 3e
       0.07434543 0.16538267 0.106283665 0.19586194
0001b0 90 1b 9b 3d c8 9f 18 3e 8b 8b 8f bd cf 82 94 3e
       0.075736165 0.14904702 -0.070090376 0.2900605
0001c0 90 a4 88 be 10 41 9d be 68 81 20 be 13 1f 86 be
       -0.2668805 -0.307137 -0.15674365 -0.26195583
0001d0 bb 3d a8 bd 0e f2 94 be 3b 3c be bd 60 81 58 3e
       -0.08214899 -0.29090923 -0.09288832 0.21143103
0001e0 06 82 1f 3e 67 45 9a 3e ee c9 5c 3e 07 64 aa 3e
       0.15576944 0.30131075 0.21561405 0.3327944
0001f0 d0 9f 6c 3e cb 14 7c bd db 46 96 be 13 49 3e 3e
       0.23107839 -0.061543267 -0.29350933 0.18582563
000200 5a 8b 9d be 40 2d 66 3d 5a 30 9c be d3 38 68 be
       -0.3077038 0.056195498 -0.3050564 -0.22677927
000210 e8 bc 9b 3e d0 a3 48 3e 33 12 50 be 20 fc 95 3d
       0.30417562 0.1959374 -0.20319442 0.0732348
000220 f2 4c a6 be f8 95 00 3e f8 73 8d 3e 18 16 63 be
       -0.3248058 0.12557209 0.2762754 -0.22176397
000230 10 1c cf bd 86 46 85 be bb 2c 63 3e a0 65 08 3d
       -0.10112774 -0.26030368 0.22185032 0.033300042
000240 00 7e 97 3d f0 29 8b be 40 8d 39 3e 2c a8 99 be
       0.073970795 -0.27180433 0.18120289 -0.30011117
000250 b3 f4 07 be 70 6a 8d bd 80 ae 47 3e 80 85 0f bd
       -0.13276939 -0.06905067 0.1950016 -0.035039425
000260 18 4a 7b 3e b6 39 1e be cb 65 50 bd 9b 04 68 be
       0.24539983 -0.15451702 -0.050878327 -0.22658007
000270 03 cc 73 be 6e b1 a9 be b8 72 56 be 40 fd bc bc
       -0.23808293 -0.3314318 -0.20942199 -0.023069978
000280 03 97 0c be c8 5b 71 3e 0c d3 a8 3e e8 c2 0b be
       -0.13729481 0.23570168 0.32973516 -0.1364857
000290 be 40 3c 3e 10 d6 3c be 58 48 29 3e 70 ab 57 3e
       0.18384072 -0.18441033 0.16531503 0.21061492
0002a0 2b 16 3c 3c 68 b7 3e be e6 7a 49 be 5b 3e de bd
       0.011479895 -0.18624651 -0.19675788 -0.10851737
0002b0 18 3f 55 be 58 5d 37 3e 7a 3e 8d be 23 8a 9c 3e
       -0.2082485 0.17906702 -0.27586728 0.3057414
0002c0 5b 62 cd bd 73 0c 8d 3e bc cb a9 3e 14 c9 82 3e
       -0.100285254 0.2754856 0.3316325 0.25544035
0002d0 56 5c dd 3c d3 08 27 3e 06 75 82 3d 8a 1c a8 be
       0.027021568 0.1631196 0.06369977 -0.32834274
0002e0 1b bd 8a 3e f6 e9 73 3d 90 7e 09 3e 68 76 a8 be
       0.270974 0.059549294 0.13427186 -0.32902837
0002f0 20 84 a7 be 4e 1c a0 3e bb bc 9d be ab d9 9d bc
       -0.3271799 0.31271595 -0.30808052 -0.019268831
000300 a6 a2 3e 3e d6 43 c8 3c 18 1e 71 3e 02 cb 81 be
       0.18616733 0.02444641 0.23546636 -0.25350195
000310 10 4e fc 3d 30 f5 df 3d 2b 61 3d be 10 03 01 3e
       0.12319577 0.10935438 -0.18494098 0.12598825
000320 16 43 b8 3d 6b ff e3 bc 90 ad 1c 3e 06 4c 1e be
       0.089971706 -0.027831754 0.15300584 -0.15458688
000330 40 d0 9a bd c7 e0 a2 be c0 63 6b 3e 80 89 07 3e
       -0.07559252 -0.31812117 0.2298727 0.13236046
000340 e7 1a a0 be 98 62 03 3e 80 70 5e 3d 1c 5e 82 3e
       -0.31270525 0.1283058 0.054306507 0.25462425
000350 33 90 24 be 80 dc bc 3d 56 41 f6 3b e8 3a 1e 3e
       -0.16070633 0.092217445 0.007515113 0.15452158
000360 d6 52 91 be 0b 03 bd 3d 2b 97 6e 3d 8b 30 58 3e
       -0.2838351 0.09229096 0.058249634 0.21112268
000370 16 c8 40 3d 16 49 1f 3d eb c1 fc bd 66 f1 88 3e
       0.047065817 0.03888806 -0.123416744 0.26746672
000380 96 8f 13 3d a6 ae 3b 3e c0 2b f3 bd 6b fb a1 3e
       0.036025606 0.18328342 -0.11873579 0.3163713
000390 d0 bb 39 be cf 49 85 be a0 5b 54 be 56 7a 60 3e
       -0.18138051 -0.26032874 -0.20738077 0.21921667
0003a0 ea 78 85 be 43 b2 46 be e3 91 73 be 56 fb 9c bd
       -0.26068813 -0.19403939 -0.2378612 -0.07665126
0003b0 40 45 40 be e8 26 3c 3e 7b ff 80 bd 83 ad a4 be
       -0.18776417 0.18374217 -0.06298729 -0.3216363
0003c0 b6 24 c8 bd 56 f5 ca 3d 56 c8 4a 3d c7 10 84 be
       -0.09772627 0.09910075 0.04950746 -0.2579405
0003d0 f0 23 a8 bd 0e f9 7f 3e 6b 26 36 3d 1b 9a f3 bd
       -0.082099795 0.2499735 0.044470232 -0.11894628
0003e0 58 29 69 3e 70 00 36 3e 36 27 db 3d 20 1d 45 be
       0.22769678 0.17773604 0.10700838 -0.19249392
0003f0 8b e7 61 bd 0b 27 56 be a0 d3 8c be b0 b5 61 be
       -0.055152457 -0.20913331 -0.27505207 -0.22041965

shared.0.bias f4 [32]
000000 d0 88 1d 3e 50 d5 54 3e 2e 15 91 be 66 e9 d2 bd
       0.15384221 0.20784497 -0.2833647 -0.102984235
000010 0b c8 6e 3e d6 2e 23 bc 17 dc 9d be 58 88 98 3e
       0.23318498 -0.009959897 -0.30831978 0.29791522
000020 4c 1d a4 3e 48 a1 a0 be 53 c8 8b be 2b 8f cc 3d
       0.32053602 -0.31373048 -0.27301273 0.099882446
000030 f3 35 2b 3e 68 a6 37 be c0 db cb 3c 66 fa db bd
       0.16719799 -0.17934573 0.024885058 -0.10741119
000040 6b e4 e0 3d cb 0b d7 3d 78 21 12 3e f6 f3 88 bd
       0.10981067 0.10500296 0.1427058 -0.06687157
000050 34 0d 94 be b0 6e 1b be 96 c4 c3 bc 3b 9e 2a 3e
       -0.28916323 -0.15178943 -0.02389745 0.16661923
000060 cb 57 a1 bd 16 93 52 be fe 42 6f 3e 3b ae 98 be
       -0.07878073 -0.20563921 0.23365399 -0.29820427
000070 93 2b 18 be b4 98 98 be 56 0e b1 3d cb 91 c8 bd
       -0.14860372 -0.29804003 0.086453125 -0.09793433

shared.3.weight f4 [128, 1152]
000000 4b 1c 9d 3c c0 db bc 3c 36 8c a2 bc 5e 6a 81 bc
       0.01917853 0.023054004 -0.019842248 -0.01579779
000010 26 0d 40 3c 13 e4 85 bc 6e 25 ac bc 0e 3d b9 3b
       0.011721885 -0.016344106 -0.021013942 0.0056530302
000020 03 72 14 bc ae 5d 13 bc c3 c0 c0 bc 65 4d 47 3c
       -0.009060386 -0.008994503 -0.023529416 0.012164448
000030 c1 53 e5 3c fc e3 59 bc 81 6c 9c bc a9 1e cb bc
       0.027994039 -0.013298985 -0.019094707 -0.024794893
000040 dc ec 9c 3c 46 cd 29 bb 63 aa 97 bc 10 36 be bc
       0.019155912 -0.0025909706 -0.018513864 -0.023219138
000050 73 70 94 bc 27 83 3c 3c 94 3a 94 3c 30 24 68 bc
       -0.018120026 0.0115058785 0.018094338 -0.014168784
000060 a4 82 a8 bb 4f 79 2c 3c df 37 9d bb 36 9b b5 3a
       -0.0051425267 0.010526969 -0.00479792 0.001385546
000070 d3 5a 46 bc 68 af f4 bb a8 e3 50 3b 84 b6 c7 bc
       -0.012106615 -0.007467199 0.0031873975 -0.024379022
000080 c8 77 c7 3c 1b 86 86 3a 2d 98 ed bb c4 22 51 bb
       0.024349108 0.0010263355 -0.007250807 -0.003191159
000090 09 3a b9 3c 9f 20 68 bc a9 75 c0 3c 1a f2 7d bc
       0.022610681 -0.014167934 0.023493605 -0.015499616
0000a0 9c a6 6c 3b 95 f1 6d 3c dc a6 3a bb 6a b6 02 ba
       0.003611005 0.01452293 -0.0028480804 -0.0004986288
0000b0 87 b7 52 3a 65 c8 44 bc 04 a2 8f 3c ad 91 e4 bb
       0.0008038212 -0.012010668 0.01753331 -0.0069753737
0000c0 40 10 74 3b a3 94 c1 ba 82 9c b5 bb 13 05 ec 3c
       0.003724113 -0.0014769029 -0.005542339 0.028811013
0000d0 d7 1a e9 bc 69 a1 79 bc 08 8c 89 39 c9 96 a4 3c
       -0.028455181 -0.015236237 0.00026235008 0.020091431
0000e0 9d e4 b4 bc 3a b4 d5 bc 8f 83 e9 bc 65 5d f9 3b
       -0.022081668 -0.026086915 -0.028505115 0.0076100104
0000f0 a0 ce d1 3c 1b d5 d2 bc 61 36 86 3c 72 29 23 bb
       0.025611222 -0.025736382 0.016383352 -0.002489653
000100 7c 83 15 bc 47 14 80 3c 85 11 a9 3c 6c 75 a6 3c
       -0.009125587 0.015634669 0.020638237 0.020319663
000110 ab 16 d9 bc 06 46 07 bc ab 34 c0 3c 94 c7 34 bc
       -0.026500067 -0.008256441 0.023462614 -0.011033911
000120 d4 87 98 3c e7 1d eb bb fc 21 34 3c 46 19 f8 b8
       0.018619455 -0.0071751955 0.010994431 -0.00011830269
000130 f6 1e a1 bc c1 07 07 bc 08 ef 18 3c 0e c1 a7 3c
       -0.019668084 -0.008241595 0.009334333 0.020477798
000140 b3 72 93 3c db 58 97 bc ed 0c ec bc df 82 83 bc
       0.017999029 -0.018474987 -0.028814757 -0.016053615
000150 53 09 9c 3c e7 34 f4 bb ab fa 94 bc 34 52 19 3b
       0.019047415 -0.0074525955 -0.018185934 0.0023394944
000160 5d d8 8d 3c 47 9c 76 3c 4d 56 0d bb 7b d4 e7 3c
       0.017315084 0.015051908 -0.0021566332 0.02829956
000170 46 5a b5 3a ac 58 8c 3c bf 9a b1 bc 03 a8 87 3c
       0.0013836108 0.017132126 -0.021680234 0.016559606
000180 f5 f6 b9 bc 3e 25 89 bc 4f 1c 78 bc 4f bf ae 3c
       -0.022700766 -0.016741391 -0.015143468 0.021331457
000190 f1 55 ae 3c 7d d4 44 bc bb 81 a9 bc 1a 46 82 3c
       0.021281214 -0.012013552 -0.020691743 0.015902568
0001a0 d4 59 e3 bc dc ed ef bc d1 93 e9 3c f7 39 e7 bc
       -0.027752794 -0.029288225 0.028512867 -0.028225882
0001b0 66 f6 b9 3c 6d c1 4a bc 8f 1e aa bc fe c7 e5 bc
       0.0227005 -0.012375218 -0.020766525 -0.028049465
0001c0 d2 93 cd 3c 9b 8a 18 3c 89 79 ce 3c aa da d0 3c
       0.0250949 0.00931039 0.025204437 0.025494892
0001d0 88 de da 3c 6a a0 68 bb 23 9a 93 3c 72 5c d6 3c
       0.02671744 -0.0035496005 0.018017834 0.026167128
0001e0 8a 74 aa 3c 7b ab 5a bc 46 ec 2c 3c 3b 59 a4 bc
       0.020807523 -0.013346548 0.010554379 -0.02006208
0001f0 92 cc 3a bc d3 52 4c 3c 46 a7 8a bc 87 12 41 3c
       -0.011401312 0.012470919 -0.016925465 0.011784202
000200 a5 74 27 3b e6 9d d5 bb d7 9a dd bc 16 5c 85 bb
       0.0025551703 -0.006519067 -0.027051372 -0.0040698154
000210 7e 42 a0 3c c9 c4 cf bc 03 24 e2 bb d7 07 44 ba
       0.019562956 -0.02536239 -0.0069012656 -0.0007477975
000220 a9 a0 42 bc f5 60 ee 3c 90 37 dd bb 16 80 e4 3b
       -0.011879125 0.029098967 -0.0067510083 0.006973277
000230 35 53 9b bc 80 87 0b 3b 97 95 1c 3c e3 40 b9 bb
       -0.018960575 0.002129048 0.009557149 -0.005653487
000240 a4 60 6e bc c7 43 95 bc c5 8a de ba e4 7a 67 3c
       -0.014549408 -0.018220795 -0.0016978612 0.0141284205
000250 2b 3e 89 3c 17 c0 01 bc af 5b 82 bc 14 9d e4 3b
       0.016753277 -0.007919333 -0.015912859 0.006976733
000260 8c e8 79 bc 5e 1b 8a 3c 43 32 d7 3c 9d b2 90 3b
       -0.015253197 0.016858753 0.026269084 0.0044158236
000270 c6 fb ae 3b dc 77 ef 3c 27 5e 7d bc 8b fa 07 bc
       0.0053400723 0.029231958 -0.015464342 -0.00829948
000280 c1 1f c7 bc 21 4b 04 bc 93 ec e7 bb aa 1e b6 bc
       -0.024307134 -0.008074553 -0.0070777624 -0.022231419
000290 2f 1c 6e bc 90 e3 cd 3c e4 d0 9f 3c 9e 33 04 3c
       -0.014533087 0.025132924 0.019508786 0.008068947
0002a0 4c 42 46 bc 77 66 c0 3b 6d 6e 83 3c 94 bd 5f 3c
       -0.012100767 0.0058715898 0.016043866 0.013656039
0002b0 96 7a cc bb 82 9d aa bc f4 3b 25 3c 83 a4 eb 3c
       -0.0062401993 -0.020827059 0.010085095 0.028764969
0002c0 7f c7 1b 3c f7 71 ba 3c 23 21 70 bc e3 cf eb bb
       0.009508013 0.02275942 -0.014656338 -0.007196413
0002d0 4e 7f a2 3c b9 02 e8 bc 6a 5a c0 bc 09 54 4e bc
       0.019836094 -0.02832161 -0.023480613 -0.012593278
0002e0 57 71 be bc 6f f7 d0 3c 33 b6 99 bc 84 43 e0 bc
       -0.023247404 0.02550861 -0.018763637 -0.027375944
0002f0 b2 a2 9e bc a2 e0 6a 3c 13 e2 fd ba 6a 56 aa 3c
       -0.019364689 0.014335783 -0.0019369744 0.020793159
000300 65 25 c5 3b 83 69 5b 3c 2a b4 98 b9 74 67 47 37
       0.0060164207 0.013391855 -0.00029125932 1.1885411e-05
000310 6f 34 0d bc 42 61 3c 3c 91 58 e2 3c 64 01 9b bc
       -0.008618458 0.011497797 0.027630122 -0.018921562
000320 20 ae a3 bc ce 15 96 bc 64 8b 13 bc 6f f2 aa 3c
       -0.01998049 -0.018320944 -0.009005401 0.020867554
000330 6f 29 82 bb 22 d1 5a 3c 54 c5 d4 bc 5d 6b b8 bc
       -0.0039722244 0.013355525 -0.025973 -0.022512132
000340 e6 8d 8e bc 6d cb 73 bc 25 03 08 bc ee 47 d3 bc
       -0.017401647 -0.014880043 -0.008301531 -0.025791135
000350 17 c8 1d 3c 3a ea ac 3c 83 ed 42 bc d2 66 9e bc
       0.009630225 0.021107782 -0.0118974475 -0.019336138
000360 de d3 80 bc bb e7 14 3c 4a 98 dc 3c fc 28 81 bc
       -0.015726026 0.009088452 0.026928086 -0.015766613
000370 fa 05 c1 bb cb 2b 5c bc 49 19 9b 3c 7f 57 7d bc
       -0.005890605 -0.013438175 0.018932955 -0.015462755
000380 09 03 b2 3c c6 7e 32 3b b4 0f 51 bc 68 99 63 bc
       0.021729963 0.0027236207 -0.012760092 -0.013891555
000390 18 9e 79 bc da 08 80 bc ea 07 13 3c d8 ca 07 bb
       -0.015235446 -0.01562922 0.008974055 -0.002072027
0003a0 ee 9d ac 3a 33 02 ba bc 32 19 a9 3c 31 ce 3a bc
       0.0013169625 -0.022706127 0.020641897 -0.011401699
0003b0 59 57 cd 3b 9e 54 d0 3b e4 2a 08 3c c2 0d 2e bc
       0.006266516 0.0063577434 0.008311007 -0.010623397
0003c0 66 e4 c5 3b ba 01 6e bc e5 7c c0 bc 1f 8d 7e bc
       0.00603919 -0.014526779 -0.023497054 -0.015536576
0003d0 84 dc ea bc e1 fb 36 3b 16 3c 25 bc 13 da 29 bc
       -0.028669603 0.0027921128 -0.010085126 -0.010366934
0003e0 86 47 cb 3b fe b1 fd bb 5f 96 1c 3c 7b 15 82 3c
       0.0062035946 -0.0077421656 0.009557336 0.015879383
0003f0 b8 0e 96 3c f2 11 88 bc 41 47 8d 3c e5 c5 96 ba
       0.018317565 -0.01661012 0.01724589 -0.0011503069

shared.3.bias f4 [128]
000000 33 4c 8c 3c f3 c0 ac 3c 7e fc 82 bc d5 1b 3d ba
       0.017126178 0.0210881 -0.015989538 -0.0007213925
000010 1f ef 0c 3c ea 9d 31 3b f5 15 b5 3c 01 5d 75 ba
       0.008601933 0.002710218 0.022105196 -0.0009359867
000020 af a7 40 bc d7 9e be bc c2 dc 4e 3b 27 05 48 bc
       -0.011758729 -0.0232691 0.0031564687 -0.01220826
000030 2d a5 0e 3b 22 fd dc bc 41 a4 81 bc 6c c5 45 3c
       0.0021765933 -0.026976172 -0.015825393 0.012070995
000040 0b 0e 21 3c 66 6e 05 bc f2 28 d7 bc 4d f7 c2 3c
       0.009830008 -0.008143997 -0.026264641 0.023799563
000050 70 14 68 bc 4e 3a 18 ba 9c 67 d9 bc 80 65 6c 3c
       -0.014165029 -0.0005807028 -0.026538663 0.014428496
000060 94 e7 d1 bb c4 ff 18 3b 19 70 80 3c ed cf 9d 3b
       -0.00640578 0.0023345808 0.015678452 0.0048160465
000070 2f a3 bd 3c fa dc 99 bc 32 9f b8 3c a7 0b c6 3c
       0.023149101 -0.018782128 0.022536848 0.024175478
000080 d8 ea 89 bb c6 a8 ac bc 88 f5 e7 bc 85 f9 20 bc
       -0.0042089038 -0.021076571 -0.02831532 -0.009825115
000090 e6 fb ef 3c e5 a8 1f ba a0 7c 5d bc 81 29 23 bb
       0.02929492 -0.0006090536 -0.013518482 -0.0024896564
0000a0 40 aa c9 3b 61 7b 89 3c d4 97 99 3c 9a b9 cd bc
       0.0061543286 0.016782464 0.018749155 -0.025112916
0000b0 13 79 d0 3c de 8f 87 3c 15 6c b3 3c 20 60 b3 3c
       0.025448358 0.016548093 0.021902123 0.021896422
0000c0 57 f0 d2 3c 19 0a 98 3c 9c ae ec 3c ff 1e 52 3c
       0.025749369 0.018559502 0.028891854 0.012824773
0000d0 d1 e2 9e 3c e6 e2 91 bc 86 1e 42 3a 64 ef ec bc
       0.019395264 -0.017808389 0.0007405061 -0.028922744
0000e0 1a 5f 3a 3c 81 9a ce bc 90 78 c7 3c d2 22 85 bc
       0.011375213 -0.025220158 0.02434948 -0.016251955
0000f0 3b c9 88 bc 23 ea cf 3c 3d 90 c1 3c d8 07 a6 3c
       -0.016697517 0.0253802 0.023628348 0.020267412
000100 0b 7f 8e 3c 62 2d 39 bc a6 c0 b1 bb b8 7c 4b 3c
       0.017394563 -0.011302324 -0.005424577 0.012419872
000110 38 45 eb bc d0 ff 90 bc 12 08 a5 bc e7 1b 19 3c
       -0.02871953 -0.017700106 -0.02014545 0.009345031
000120 76 91 b7 bb 6b 89 44 bb b3 58 ae bb ee ba bd ba
       -0.005602057 -0.0029989134 -0.0053206324 -0.0014475265
000130 5a f7 ad 3b 26 32 6e 3c 05 46 bd 3c 75 7a d1 3c
       0.0053090276 0.0145383235 0.023104677 0.025571087
000140 45 b7 4f 3c 04 ca cc bc 6e 32 cb bb ed e9 4d 3b
       0.012677972 -0.024998672 -0.00620108 0.0031419948
000150 3f fd b4 bc fa 4a e9 bb b1 51 be 3c 88 7b 69 3c
       -0.022093413 -0.0071195336 0.023232313 0.014250644
000160 5a a6 9c bc aa 6e d1 bb 3b c4 a8 3c a9 d3 3c 3c
       -0.019122291 -0.006391366 0.020601382 0.011525073
000170 0d 2d a5 3c d0 1b 26 3b 05 f5 ef 3c 72 83 9e b9
       0.020163083 0.0025346167 0.02929164 -0.00030234043
000180 88 ad dc bb a2 70 3a 3c 8a 2a c0 3c d2 80 f0 bc
       -0.0067345537 0.011379393 0.023457784 -0.029358301
000190 28 53 3b 3c 34 f6 9b bc 7a 04 ec bc a9 5e cb bc
       0.0114334 -0.019038297 -0.028810728 -0.02482541
0001a0 53 08 ca 3c 91 09 be 3c f1 8b 15 bc 9e f2 07 3c
       0.024662172 0.023197921 -0.009127603 0.008297591
0001b0 de 40 76 3b 98 62 6a 3c 38 ba 8a 3c f0 ba 09 3c
       0.0037575285 0.014305733 0.0169345 0.008406386
0001c0 10 5a 97 3c 0b 30 28 bc cb 42 66 bc 50 fa b3 bc
       0.018475562 -0.010265361 -0.014054011 -0.021969944
0001d0 52 32 dd bc 4c db b1 bc a7 0c 11 bb a2 38 cd 3c
       -0.027001534 -0.021711014 -0.0022132786 0.025051419
0001e0 b1 60 e3 bc f1 e9 a0 bc 4a e2 74 3c c5 5f dc 3c
       -0.027756067 -0.019642802 0.01494653 0.026901135
0001f0 02 6c 10 bc d7 e3 00 bc 22 a9 d4 bc 2c 03 ec bc
       -0.008814814 -0.007866821 -0.025959555 -0.028810106

policy.0.weight f4 [128, 128]
000000 ca e2 82 3d f7 0a dc bd f5 b5 5f bc 89 98 2c 3e
       0.06390913 -0.10744279 -0.013654222 0.16855063
000010 7f ed 86 be 3e 97 99 3e e3 a2 67 bc 93 ee a8 bb
       -0.2635307 0.299982 -0.014137956 -0.0051553934
000020 06 36 62 3f a2 bd 19 bd b5 33 c4 3b 37 65 50 3d
       0.88363683 -0.037534364 0.0059876093 0.050877776
000030 a0 10 cf 3d 03 93 df bd 13 17 17 3e 82 74 2f bc
       0.10110593 -0.10916712 0.14754896 -0.01070893
000040 8c 2f 13 3c 22 17 2e 3f 8d 6e b7 3e ac ea 86 3c
       0.008983504 0.6800405 0.3582653 0.016469322
000050 d0 8b 3e 3e 09 fa 30 be d5 9c e2 3d 02 0c fd bd
       0.18608022 -0.17282881 0.110650696 -0.12355806
000060 62 c5 35 3e 19 54 a8 bd 87 76 c9 3d f1 e5 92 bd
       0.17751077 -0.08219165 0.098370604 -0.07172764
000070 a8 5e 11 3e cf 4c 2f 3e 1a 29 bd bd 66 50 c3 bd
       0.14196265 0.17119144 -0.09236355 -0.09536819
000080 4c b7 47 3e 17 c0 d8 3d 6f 77 ff bd b3 87 6c be
       0.19503516 0.10583513 -0.12473952 -0.2309864
000090 57 52 35 3e 6e a5 09 3e fe 05 c6 3d 07 38 8f be
       0.17707191 0.13442013 0.09669112 -0.27972433
0000a0 60 a5 2a be 3e 2b 07 3e 40 86 0c 3e e6 7e 81 bd
       -0.16664648 0.1320009 0.13723087 -0.06323032
0000b0 94 37 be bd 96 9f 13 3e ac f3 db 3e 70 d1 49 bd
       -0.092879444 0.14416346 0.42959344 -0.049272
0000c0 22 d5 b2 bc 45 2b b2 3d ad fd ad bd 4c a2 8b bc
       -0.021830145 0.08699659 -0.084956504 -0.017045163
0000d0 f7 d6 b4 bd 5f f7 02 be b9 64 42 be d7 ec 81 bd
       -0.08830064 -0.12789677 -0.18983735 -0.06344002
0000e0 8f 6e 56 be bc 34 1e 3e 5f 6d 6e 3e 96 fa 86 3d
       -0.20940612 0.15449804 0.2328391 0.06590764
0000f0 e6 42 49 be 6d 13 11 3f 80 24 92 be c2 e5 5b 3e
       -0.19654426 0.56670266 -0.28543472 0.21474364
000100 e0 a8 e3 3e 9c a7 3f 3d c5 24 b6 bd a1 84 03 3c
       0.4446478 0.046790704 -0.08893732 0.008027227
000110 cf e0 d0 3e 80 e4 1a be 02 2f d1 bc 5c ef ca 3d
       0.40796515 -0.15126228 -0.02553511 0.099089354
000120 31 f8 8b 3d f9 f3 31 be bf 2b 56 3e f5 e6 c8 bc
       0.06834448 -0.17378224 0.20915125 -0.024524191
000130 38 90 50 bd 60 02 b0 bd 7f d1 ef 3c 50 22 b5 3b
       -0.050918788 -0.08594203 0.0292747 0.005527772
000140 42 1f 46 be 12 f1 35 3e 4f 28 07 3e d1 e2 a5 be
       -0.19347861 0.17767742 0.1319897 -0.3239961
000150 64 29 3d 3e b3 db 08 be 92 d3 3f 3e ea 12 8a be
       0.1847282 -0.13365059 0.18733051 -0.26967555
000160 cd 25 6b be c4 bf 21 3f 63 35 62 3e 45 2a 23 3e
       -0.22963639 0.63183236 0.22090678 0.15934093
000170 83 74 11 3f f7 4a 09 be 7b 74 43 be 40 d1 48 3d
       0.5681841 -0.13407503 -0.19087403 0.04902768
000180 90 e9 e5 3d b2 6f 90 3d 35 57 27 be ee 14 0b 3e
       0.11226189 0.07052554 -0.1634186 0.13582203
000190 be cd aa 3d e0 77 c9 bd c7 95 0a 3e 75 e4 2c be
       0.083400235 -0.098373175 0.13533698 -0.16884024
0001a0 44 21 6f be 10 29 e8 bb f3 76 90 3d 2d 84 11 3c
       -0.23352534 -0.007084973 0.07053938 0.008881611
0001b0 fb 70 d1 3e ff 03 d4 3d f0 35 38 3e d0 02 03 be
       0.4090651 0.10352325 0.17989326 -0.12794042
0001c0 92 b1 52 3d 9f e8 4c 3d 97 52 69 3e eb f7 33 3d
       0.051438875 0.050026532 0.22785412 0.043937605
0001d0 77 c0 4a be d2 a0 42 3e 54 83 ac 3d f6 a2 9a be
       -0.19799982 0.1900666 0.08423486 -0.30202454
0001e0 06 be be bd 9a 2b 9b be d1 3d aa 3e 1f df a6 bd
       -0.09313588 -0.30306703 0.33250287 -0.08148026
0001f0 3d ed bf 3e 3a 7a 60 3d 03 49 18 be c3 ee d3 bd
       0.37485686 0.054804064 -0.14871602 -0.103482746
000200 1c a3 94 be e3 c7 08 be aa f4 b7 3e 0a 0f a3 3d
       -0.29030693 -0.133575 0.3592885 0.07961853
000210 c5 ae 42 be f9 35 90 be 7c 58 8e be 81 16 64 3c
       -0.19011982 -0.28166178 -0.27801883 0.013921381
000220 10 32 3b bf e2 30 44 be 32 26 38 3e f5 1d 80 3e
       -0.73123264 -0.19159272 0.1798332 0.25022855
000230 cb 36 2a 3e d7 19 90 bd 6a d0 36 bc 60 09 15 be
       0.16622464 -0.070361786 -0.011158088 -0.14554358
000240 ca df 3b 3e 0c 3d 16 bf 8b f3 cc 3d 99 44 06 be
       0.18347088 -0.586869 0.1000739 -0.13112105
000250 6d dc ca bd ea 7a 39 bd f6 c3 e8 3e 65 13 d4 bb
       -0.09905324 -0.045283236 0.45462006 -0.0064720386
000260 3e df 1f 3e 5f 49 1c 3f 99 1c c2 3e f0 8b 83 3e
       0.15612504 0.61049455 0.37912443 0.256927
000270 fd 62 38 3c 3d ed 80 3e 02 3d ef bd 7d 33 ea bd
       0.011254069 0.25180998 -0.11681558 -0.11435602
000280 b9 9c 3e be 2f 8d 48 bb 58 bf 5a be fe a4 92 be
       -0.18614472 -0.003060173 -0.21362054 -0.28641504
000290 61 5e 7c 3c 4c 7a 7a be da 89 52 3d 3b 89 54 be
       0.015403361 -0.24460715 0.051400997 -0.20755474
0002a0 18 b7 c5 be f5 4c 32 3b 52 6f 09 3e 1d 9c f8 be
       -0.38616252 0.0027206514 0.13421372 -0.48556605
0002b0 0c c4 70 be 82 a3 c0 be 76 71 16 3e ca b7 ab bd
       -0.23512286 -0.37624747 0.1469172 -0.08384664
0002c0 82 44 1f bd 5c 82 34 be 2c ea 3e bf 82 69 35 be
       -0.038883694 -0.17627853 -0.7457607 -0.1771603
0002d0 cf a1 01 be 68 e9 a9 3d 09 45 4b 3d 9c 83 2f 3e
       -0.12659381 0.08296472 0.049626384 0.17140049
0002e0 74 b2 b3 be d2 ff 1e 3e 8f fe 52 3e ac 7f ab 3e
       -0.35097086 0.15527275 0.20604919 0.33495843
0002f0 bb 45 8c be 43 09 a5 be 61 07 55 be 97 99 62 3e
       -0.2739695 -0.3223363 -0.20803596 0.22128902
000300 75 ed 27 bf 17 b1 79 3e af d0 73 3e 80 28 c8 bd
       -0.65596706 0.2438396 0.23810075 -0.0977335
000310 b5 dc 8d 3d d6 bf 7b bd 90 38 61 3e 08 7d 84 3e
       0.06926862 -0.061462246 0.21994233 0.2587664
000320 61 a6 ea 3d ca 96 11 be e9 f8 bd 3e 36 50 66 3d
       0.114575155 -0.14217678 0.37103966 0.05622884
000330 bf f2 30 be df cb ad 3d 58 e8 a9 3d 85 af 8a bc
       -0.172801 0.08486151 0.08296269 -0.016929397
000340 f2 bb 0a 3e e1 ae 26 3e 70 7a 49 bd 08 d7 01 3e
       0.13548258 0.16277649 -0.04918903 0.12679684
000350 41 76 55 3e 33 10 8e bd a2 1f d2 be 74 04 d9 be
       0.20845892 -0.069366835 -0.4103976 -0.4238621
000360 db 9b 66 be 76 21 9d be 89 7f 59 3e a9 5a 69 bd
       -0.22520392 -0.3068959 0.21240057 -0.056971226
000370 fd 79 33 be ea 6c 37 be 68 c3 69 be 21 b9 64 be
       -0.17527004 -0.17912641 -0.22828448 -0.22336246
000380 9e ae 0a be 7a 6f 4d 3e 5d 74 11 bd 30 d1 56 3c
       -0.13543174 0.20062056 -0.035511363 0.013111398
000390 c8 57 bf bc fd ff 31 be e6 e9 8a 3e d8 0a 9b 3d
       -0.023357287 -0.17382808 0.27131575 0.07570428
0003a0 64 d3 31 3d e8 e8 d3 bd 23 e0 96 3e b8 d9 cf 3d
       0.04341449 -0.10347158 0.29467878 0.101489484
0003b0 b8 36 70 3e 92 18 9e 3d 05 dc 3e 3e b6 8c 4f 3e
       0.23458374 0.0771953 0.18638618 0.2026852
0003c0 b7 19 37 bb 55 48 ff bd a2 f8 6c bd 31 7f e4 3d
       -0.0027938911 -0.12464968 -0.057854302 0.11157072
0003d0 92 49 8b be ec 14 92 3d 82 34 74 3e 40 7d 6a 3e
       -0.27204567 0.07132897 0.23848155 0.22899342
0003e0 32 f9 30 be 6c 7b 58 bc 87 e2 80 3d ce c9 a4 3d
       -0.1728256 -0.01321302 0.06293207 0.08046304
0003f0 7a 1b 80 bd 2f 35 16 3e cc 5c 5e be d5 47 c3 bd
       -0.06255241 0.14668725 -0.21715087 -0.09535185

policy.0.bias f4 [128]
000000 c3 15 88 3c d7 28 dc 3d 73 32 13 3c ab a6 52 be
       0.01661194 0.10749977 0.008984196 -0.20571391
000010 3d cc 17 bd 89 99 db bc ef c2 ce 3d 65 1c 4c bd
       -0.03706001 -0.02680661 0.100957744 -0.049831767
000020 77 32 0e 3e 61 4a a4 3d a5 be 1f 3c 97 39 91 3d
       0.13886438 0.08021999 0.009750043 0.070910625
000030 e4 a5 71 bd a8 d5 7c 3c 6e 39 00 3e 1d e8 fd 3d
       -0.058996096 0.015431799 0.12521908 0.12397788
000040 07 0c aa bd 6d de b0 bd 21 d9 44 be 21 ae 4a 3e
       -0.08303075 -0.08636174 -0.19223453 0.19792987
000050 80 7f f3 3d a9 02 7a bd 5e f6 ca 3d 5a 79 9d 3d
       0.11889553 -0.061037693 0.09910272 0.076891616
000060 4d b1 2a be 11 ee 3d 3e f6 47 3b 3d c3 7b a6 3d
       -0.16669197 0.18547846 0.045722924 0.081290744
000070 72 a3 1f bd 2b 3b b3 3d 0a 2f fa bb bd f9 a5 bc
       -0.038974233 0.0875152 -0.007635002 -0.020260686
000080 5c 53 2a 3d 20 52 8c 3c 09 ba d4 3d 6e 26 e2 bd
       0.041583404 0.017129004 0.10387046 -0.11042486
000090 ac 4d 02 3e 97 75 42 3e 46 36 c7 bd e8 fd e3 bc
       0.12724942 0.1899017 -0.09727149 -0.027831033
0000a0 b0 3c 20 be 44 bd ba bd e7 03 10 be a1 64 5d 3c
       -0.1564815 -0.09118131 -0.14063989 0.013512761
0000b0 26 07 1e 3d 77 d5 6e 3e de 5a 64 3d ad 50 c3 3d
       0.038581036 0.23323618 0.05575072 0.09536872
0000c0 0b ef 23 3e 16 40 43 3c 66 68 be 3d 3c 5c 4f 3c
       0.16009156 0.011917135 0.09297256 0.012656268
0000d0 69 45 90 bd 69 fe 1c 3e 37 49 12 3e 5d 6e 61 3c
       -0.07044489 0.15331425 0.14285742 0.013759223
0000e0 b6 d9 0e 3e cb 60 2e 3e 61 59 0a 3d 78 4a 51 bc
       0.13950238 0.17029111 0.033776645 -0.012774102
0000f0 e7 d5 16 3d 25 95 13 3e da b9 09 bc 39 c2 d0 3d
       0.036825087 0.14412363 -0.008406127 0.10193295
000100 61 01 0c 3a 0f be 0f 3c 27 2c 4b 3d bd 47 1e 3d
       0.00053407816 0.008773341 0.049602654 0.038642634
000110 f7 3a 88 3d 2a 81 2c 3d f9 14 4f bc c4 e0 89 3b
       0.06651872 0.042115368 -0.012639278 0.0042077024
000120 42 87 ce 3c b5 4d 60 bb 98 09 07 3d 69 5c 98 3d
       0.02521098 -0.0034226004 0.032968134 0.07439501
000130 a1 18 8d be 5e 2d 33 3e 42 5a 52 3e e4 ed d1 bd
       -0.27557853 0.17497775 0.20542243 -0.10250452
000140 e9 c7 e6 3d f4 66 99 3c 3a 19 4a 3e 01 bf b0 bc
       0.112685986 0.01872585 0.19736186 -0.021575453
000150 d5 50 ae 3c a1 67 8a 3d 19 4e 20 3e ef 10 28 3d
       0.021278778 0.06758047 0.15654792 0.041031774
000160 dc 7f 54 3e 0b e2 e3 3d 66 73 74 3e c5 d7 92 3d
       0.207519 0.11127099 0.23872146 0.07170061
000170 f6 a3 b4 3e 42 8f df bc 74 9b 34 bd 35 67 c3 bc
       0.35281342 -0.02728999 -0.044093564 -0.023852924
000180 18 e3 83 3e 95 84 bf 3d 3e ae 91 3d 9f cb d0 bb
       0.25759196 0.0935146 0.07113312 -0.00637193
000190 cd e3 a6 3d 6b f8 1f 3d 5a 0b 5d be 5b c6 3b 3d
       0.08148918 0.03905527 -0.21586362 0.045843463
0001a0 71 7e 11 3e f7 10 58 3e fd d0 45 be 6b 58 37 3d
       0.1420839 0.21100222 -0.19318004 0.044762056
0001b0 ed d4 c6 3d 3c ef 33 3d 55 07 d4 bc b8 0e 91 ba
       0.09708581 0.043929324 -0.025882402 -0.0011067009
0001c0 b9 8f 89 3d a2 9b 78 3e 6b 48 d3 3d 59 10 5e 3d
       0.06716866 0.24278119 0.10316547 0.05421481
0001d0 70 26 68 3d 60 58 3b bd 9c ca f3 3d 82 f5 20 3e
       0.05667728 -0.045738578 0.11903879 0.15718654
0001e0 b3 7e 8d 3d 45 85 ad 3d be 73 b7 bc a2 79 7a 3d
       0.069089316 0.08472685 -0.022394057 0.061151154
0001f0 2d 94 a4 3d b2 c8 46 3b 8a e0 93 bc ea 85 49 3d
       0.08036075 0.0030332026 -0.018051405 0.049199976

policy.2.weight f4 [32, 128]
000000 92 f7 b3 be 77 78 24 bd ee e8 04 bc 3f b9 08 bd
       -0.3514982 -0.040153947 -0.008112175 -0.03337979
000010 a1 1b b3 3e b7 4d 60 bd 75 b1 92 3c 7b 02 5d be
       0.34982017 -0.054761615 0.017906884 -0.21582977
000020 a8 38 95 3a bc 8f c3 bb 79 5a b8 3c 82 82 23 bd
       0.0011384683 -0.005968062 0.022504078 -0.039919384
000030 4c a7 d9 3d b5 92 8d 3d 83 f6 d0 bd a6 50 4a bd
       0.106276125 0.06912748 -0.102032684 -0.04939332
000040 c9 6c 65 3e 28 96 2e be f9 b0 8e 3d 3f 1a c3 bb
       0.2240478 -0.17049468 0.069673486 -0.0059540565
000050 0e 42 93 bd 40 6c 30 3e 52 5a 96 bc 28 cc cf 3d
       -0.07190333 0.17228794 -0.018353615 0.101463616
000060 5d ab 07 3d c9 0d b8 bd 1e 9e 31 bd db ee f4 3b
       0.03312241 -0.08987004 -0.043363683 0.007474763
000070 62 17 cc 3d 51 b9 1d 3d a6 0d 2c 3d 4b 25 7f bc
       0.099653974 0.03850681 0.042005204 -0.015572856
000080 d4 b7 03 3e 0d 8d ea 3c 85 62 cd bd d6 92 1b bd
       0.12863094 0.028631711 -0.10028557 -0.03798183
000090 92 77 d0 bb ec bd a8 be 9d 0a 7f bd c5 1a fa bb
       -0.00636191 -0.329574 -0.06226598 -0.0076325857
0000a0 0c 5c 12 3d 05 1f e8 bc df cb cc 3d d9 bc 93 bd
       0.035732314 -0.028335104 0.09999823 -0.07213754
0000b0 e4 af 07 bd 10 c2 88 bd 1f d0 4f 3c 5d 50 7d 3d
       -0.033126727 -0.066776395 0.012683897 0.06184422
0000c0 b5 9f 01 bd 65 0d 2c bd 56 48 35 bd 94 b8 8d 3d
       -0.03164645 -0.04200496 -0.044258438 0.06919971
0000d0 72 8a 26 3c 65 ab 00 be 97 f1 cd bd 85 7e 96 3d
       0.010164844 -0.12565382 -0.10055845 0.073483504
0000e0 ba ea c9 3d c2 90 2b bd b1 c5 9b 3d dd c4 90 bd
       0.09859224 -0.0418861 0.07606066 -0.07068799
0000f0 bb 7a 13 3b ae 65 90 bd 87 e4 88 3d 5b 04 63 3c
       0.0022503573 -0.07050644 0.06684213 0.013856019
000100 d3 a9 0c 3d 23 94 6c bd 0b e1 ab bd fc f9 f4 bc
       0.034341644 -0.05775846 -0.08392533 -0.029904358
000110 14 66 46 bd c5 29 fc 3b 45 af 53 bd 92 cc ed bc
       -0.048437193 0.007695409 -0.051680822 -0.02902821
000120 d3 05 34 3d b4 99 24 bd e1 c3 52 3d 51 42 52 bd
       0.043950867 -0.040185645 0.051456336 -0.051332776
000130 85 50 06 3d 34 0d 9e bd 85 2d f2 3c 4e d0 11 3d
       0.032791633 -0.07717362 0.029562721 0.035599045
000140 81 c0 05 be 0f bb 2a 3d 16 04 de bc 77 d6 eb bc
       -0.13061716 0.0416823 -0.027101558 -0.028788788
000150 0e 95 63 3d 2a 86 27 bd f6 b6 d6 bd b5 ea dc bd
       0.05556207 -0.040899433 -0.10484116 -0.10786954
000160 48 df 10 bf 65 bf 53 3b c7 21 66 bd 54 b4 80 3d
       -0.565907 0.0032310125 -0.056184556 0.06284395
000170 da bc 5a 3c 10 d1 a3 bd 55 6e ca 3b d8 9f dd 3d
       0.01335069 -0.0799886 0.0061777034 0.108215034
000180 5b a2 dc 3b 69 c2 9f bd 13 56 bb bb dd 82 06 bd
       0.0067332215 -0.07800753 -0.005717048 -0.032839645
000190 dc fe ce 3d 64 69 0c bc 43 d9 c4 3d e1 02 ab 3d
       0.10107204 -0.008570049 0.09611752 0.083501585
0001a0 ce 5d e3 bd 0d c0 80 bf 50 81 7d 3d 26 df 89 3d
       -0.11101876 -1.0058609 0.0618909 0.06732015
0001b0 26 12 e7 bc 87 12 ca 3d 40 5b d2 bc 89 7e 9c 3d
       -0.028206896 0.09866815 -0.025678277 0.07641322
0001c0 2e e0 32 bd ba c5 c9 3d 14 3b 1c 3d 3c 1d e3 bc
       -0.043670826 0.098521665 0.03814228 -0.027723901
0001d0 af dc 82 bd 62 2b 30 bd 66 6b c0 bc 10 92 5a bd
       -0.06389748 -0.043010123 -0.023488712 -0.053361952
0001e0 00 40 aa bc 91 b5 33 bd 61 fb b8 3b e3 12 23 bd
       -0.02078247 -0.043874327 0.005645201 -0.039812934
0001f0 ed aa 07 bd 79 30 fb 3d 54 22 97 bd b6 ad 33 bd
       -0.033121992 0.12265105 -0.073795944 -0.043866836
000200 7e 92 75 be 53 13 b3 bd f5 f1 04 be c5 da 48 bc
       -0.23981664 -0.0874392 -0.12982924 -0.01225919
000210 7f 88 98 3e c6 85 27 bd e0 68 43 bd ca 6c de bd
       0.29791638 -0.04089906 -0.04770744 -0.108605936
000220 5d 3c d1 bc 62 01 87 bc a4 53 22 3a 54 f9 02 3c
       -0.025541479 -0.016480152 0.0006192273 0.007994015
000230 2a 62 77 bd e0 9d 87 3d cc 3a 06 be 88 48 ab bd
       -0.06039635 0.06621909 -0.13108367 -0.083634436
000240 1d 82 7e 3f 08 d7 1d bc 3b 81 de 3d 76 5a 08 be
       0.9941729 -0.009633787 0.108644925 -0.13315758
000250 b4 c9 df bd 48 e3 04 3e 41 3d 31 3d 74 09 39 3d
       -0.10927144 0.12977326 0.043271307 0.04517503
000260 ed 6b 9c 3d bd e1 ba bd 99 54 82 bd ef f8 0a 3c
       0.07637773 -0.091250874 -0.06363792 0.008482202
000270 04 ec 85 3d c6 9f 73 3d d8 8d 54 bd 1a 3a 72 bc
       0.06539157 0.059478544 -0.051893085 -0.01478436
000280 12 b8 06 3e 4b 6c bf bd 71 e7 32 bd 54 40 54 3d
       0.13156155 -0.09346827 -0.04367775 0.05181916
000290 ac 1a 22 bd 14 52 a9 be 95 f3 01 3d 6e 5c 20 bc
       -0.039576218 -0.33070433 0.03172644 -0.009787662
0002a0 9c 27 69 3d e4 11 1d bd 82 49 99 3d b8 e0 02 bd
       0.05692254 -0.03834714 0.07484724 -0.03195259
0002b0 67 12 19 be 2d 2f 86 bc ab 34 89 3b b6 dd 85 3d
       -0.14948426 -0.016379917 0.0041871867 0.06536429
0002c0 c1 4b d1 bd 59 01 8d 3d bf a9 b3 bd 27 76 9a bd
       -0.10219527 0.06885023 -0.08772611 -0.07542067
0002d0 2f cb 29 bd 85 e6 b1 bd 16 84 05 3d bd 11 99 3a
       -0.041453537 -0.08686546 0.03259667 0.001167826
0002e0 d6 37 76 bc e9 bc e4 bd 05 a8 61 3b 57 b2 c7 bd
       -0.015027961 -0.11168844 0.0034432423 -0.097508125
0002f0 ab 50 4e 3d 47 01 f3 bc fa b4 05 bd 79 08 27 3d
       0.0503699 -0.029663695 -0.032643296 0.040779565
000300 f3 0c c2 3a 28 46 0e 3d 33 bb b7 bd c6 bc 23 3d
       0.0014804885 0.034734875 -0.08971252 0.03997495
000310 24 08 73 3c 8e e8 3f bd a5 13 ba bd b5 81 85 bd
       0.014833484 -0.04685264 -0.09085778 -0.0651888
000320 d4 eb 81 bd 99 df c1 3b da 10 58 3d 5b bf b0 bc
       -0.06343809 0.0059165475 0.052750446 -0.02157562
000330 76 82 4e bd 14 bb 3b bd d4 98 a9 3c 0b 35 f9 bc
       -0.050417386 -0.04583271 0.020702757 -0.0304208
000340 6a e4 68 bd bc 3b 64 bc d3 fd f5 bd 0e bf 3a 3d
       -0.056858458 -0.013930257 -0.12011304 0.04559236
000350 97 61 bc 3c bc 57 16 bd 8a 2b eb bd d0 01 9f bd
       0.022995753 -0.036704764 -0.11482914 -0.077640176
000360 53 84 c1 be d3 1e 80 3c e0 63 c8 bd 54 f9 83 b9
       -0.37796268 0.015639698 -0.09784675 -0.0002517203
000370 fc 1e da bc 01 f7 a8 bd d4 06 43 3d f2 7d 1b bd
       -0.026626103 -0.08250237 0.047613934 -0.037961908
000380 a1 cb a0 bd 30 be 88 bd c4 20 75 bd c6 cf 27 bd
       -0.07851339 -0.066769004 -0.0598457 -0.040969633
000390 09 80 8a 3c 72 94 a6 3c fa 3f 24 3d ba f1 38 bd
       0.016906755 0.020334456 0.040100075 -0.045152403
0003a0 35 4b ae bd 21 87 6f bf 9e 21 93 3d b4 00 79 3d
       -0.08510438 -0.93565565 0.07184146 0.060791686
0003b0 62 a3 83 3d f3 86 98 bd 07 65 99 3c 86 45 31 bd
       0.06427647 -0.074476145 0.018724931 -0.043279193
0003c0 b6 1a 05 bd 60 fe bd 3d 5c b0 c1 bd 33 c9 48 bd
       -0.032496177 0.09277034 -0.09457466 -0.049020004
0003d0 7c 3d 83 3b 57 4d cd bd b5 8a 5a 3b c9 bb 07 be
       0.0040051322 -0.10024517 0.0033346836 -0.13255228
0003e0 ea 6c cd bc 90 2e 2f 3c 6f 05 9d bd 74 7e 0b bd
       -0.025076348 0.010692254 -0.07667052 -0.034056142
0003f0 90 6d 2f bd 31 1d 7c 3e fc 19 90 bd 7c 98 ef bc
       -0.042829096 0.2462051 -0.07036206 -0.029247515

policy.2.bias f4 [32]
000000 1f af e6 bd 34 af 86 bb 8b 60 c5 bb 39 ea 20 3d
       -0.112638704 -0.0041102413 -0.0060234717 0.039285872
000010 04 22 05 be 7a ed ae 3c 44 ca b6 3d cc 70 3b 3e
       -0.13001257 0.021353472 0.08925298 0.18304747
000020 8d 42 b2 bd ea 3b 0d 3d b1 94 af bd d4 00 fc 3c
       -0.087041 0.034480967 -0.085732825 0.030762114
000030 a2 f2 12 bd f9 05 31 bd 8f ac 8c 3d 1e 9c b7 39
       -0.035875924 -0.043218587 0.068688504 0.00035020796
000040 01 ba f6 bc dc 94 ae bd 4b ea 55 3d c5 7b 16 bd
       -0.03011799 -0.085244864 0.052225392 -0.03673913
000050 44 92 8d 3d 32 12 22 3d 8d 9a 1d be 03 03 15 3e
       0.069126636 0.039568134 -0.15390988 0.1455193
000060 79 82 8d bd b7 95 66 3d 12 44 30 be d2 74 0f 3e
       -0.06909651 0.056295123 -0.17213467 0.14009407
000070 a6 48 6f 3d 1f ec e2 bd fa 65 a0 3d 99 5f ce bd
       0.058418892 -0.11080193 0.078319505 -0.100768276

value.0.weight f4 [1, 128]
000000 3a 88 a3 40 fa 2d b8 c0 c5 cf 95 be 53 c4 2b c0
       5.110379 -5.7556124 -0.29260078 -2.6838577
000010 f0 74 aa c0 65 5b 67 41 ea 7d ba c0 3a 83 b4 40
       -5.3267746 14.459813 -5.8278704 5.641019
000020 b9 84 a5 40 31 c3 d9 40 7d 32 5f c0 11 2a c3 40
       5.1724515 6.805077 -3.4874566 6.098885
000030 7b c2 86 40 07 b6 44 c0 c5 f5 bf 40 cc b7 c4 c0
       4.2112403 -3.07361 5.998751 -6.147436
000040 14 ff 63 c0 02 34 44 40 e5 ba 7e 3f c5 cb d1 40
       -3.5624437 3.0656743 0.9950393 6.556124
000050 1a 0e 3b 3f a1 db 81 41 c9 73 f9 40 53 43 e3 40
       0.7306839 16.23224 7.795384 7.1019683
000060 ff 79 b9 40 7a 81 10 41 c8 2a a6 c0 ae 35 bf 40
       5.796142 9.0316105 -5.1927223 5.9753027
000070 03 e7 8d 40 29 6c c7 40 72 1a a9 c0 9c e8 9c 40
       4.4344497 6.231953 -5.284478 4.9033947
000080 f5 4f b4 40 c0 58 c1 40 7a cd c0 c0 d3 da 5b c0
       5.6347604 6.0420837 -6.0250826 -3.435231
000090 4a 70 7d 41 b8 f5 71 41 b2 15 bc 40 18 f3 ae c0
       15.839914 15.12249 5.8776484 -5.4671745
0000a0 77 2e 83 41 0d 76 c5 40 ba 1a c2 40 fc f9 7a 41
       16.397688 6.1706605 6.0657625 15.686031
0000b0 be 86 98 40 a6 59 b1 40 10 33 90 3f f0 0e 98 3e
       4.766448 5.5421934 1.1265583 0.29698896
0000c0 2e 99 b0 c0 d2 49 b3 c0 42 b9 6f 41 b7 fe be c0
       -5.5186987 -5.6027613 14.982729 -5.968593
0000d0 ab 1d ad 40 e6 a2 1f c0 81 ef 9c 3f 42 27 31 c0
       5.4098716 -2.4943175 1.2260591 -2.768021
0000e0 d9 d8 7c 41 f0 97 c2 40 10 a3 b0 40 82 b7 71 c0
       15.802941 6.081047 5.519905 -3.7768254
0000f0 af 3a c9 40 2d b3 76 40 b1 24 8f c0 1b cc d5 40
       6.2884135 3.854686 -4.473229 6.681165
000100 89 79 a5 40 d5 8d 98 c0 ff 9b b8 40 31 02 98 c0
       5.171086 -4.7673135 5.7690425 -4.7502675
000110 2f 89 5c c0 73 cb 95 bf 22 dc db 40 ac 3b c1 40
       -3.445873 -1.1702713 6.8706217 6.038534
000120 e5 0c b5 40 cc 82 c4 c0 2c b2 05 3e 06 29 c7 40
       5.657824 -6.1409664 0.13056248 6.2237577
000130 db 76 b9 c0 26 d4 b1 bf c8 71 c1 40 ea 15 c1 40
       -5.7957587 -1.3892868 6.0451393 6.033925
000140 3f 64 ac 40 6a bb 64 40 64 74 b9 c0 7b 03 c7 3f
       5.387237 3.5739388 -5.795458 1.5547937
000150 2d 7a c3 40 26 36 80 40 0d 8f b5 40 8a 7f a2 40
       6.108664 4.00661 5.6737123 5.0780687
000160 27 0c 94 40 e2 94 a0 40 31 cd af 40 d4 58 d0 40
       4.6264834 5.018174 5.493798 6.5108433
000170 23 f9 3a c1 33 21 8e c0 aa e1 ba c0 d0 6d b5 40
       -11.685824 -4.4415526 -5.840047 5.669655
000180 39 c1 bb 40 6a fc 71 41 57 02 bd c0 80 1f ad c0
       5.8673368 15.124125 -5.9065356 -5.410095
000190 cb 09 79 41 70 66 a5 40 1c fb b9 40 fc db 96 c0
       15.564891 5.1687546 5.811903 -4.7143536
0001a0 d8 70 93 40 dc 6f a6 c0 46 04 b8 40 9a c8 a6 40
       4.607525 -5.2011547 5.7505217 5.2119875
0001b0 5e 37 45 3f 4c 9b c9 3f 59 0f b8 40 c9 18 c5 40
       0.7703761 1.5750518 5.7518735 6.1592755
0001c0 b1 06 9b bf 47 a7 c3 c0 15 3e af 40 61 db bf 40
       -1.2111417 -6.1141696 5.4763284 5.9955297
0001d0 c7 17 4c c0 2d b3 c1 40 18 33 be 40 c4 bd c0 bf
       -3.1889513 6.053122 5.943737 -1.5057912
0001e0 69 87 7c c0 37 41 10 40 74 01 90 40 19 b5 c5 40
       -3.9457648 2.2539804 4.5001774 6.1783566
0001f0 98 49 bb 40 e1 86 8a c0 4c 82 8b c0 11 23 7e c0
       5.8527336 -4.3289647 -4.3596554 -3.9708903
